HuggingFaceCourse/Solutions/Unit4/cartpole_reinforce_model.pth (torch, 15975 bytes, 12 tensors)

fc1.weight f4 [16, 4]
0	0xbf54df00	-0.8315277
1	0xbef420e9	-0.47681358
2	0xbf0b5727	-0.5442986
3	0xbf1859ba	-0.5951191
4	0xbebd3793	-0.36956462
5	0xbd24221b	-0.040071588
6	0xbfffaaa4	-1.997395
7	0xbeb8919c	-0.3604859
8	0xbcd917ce	-0.026500609
9	0xbe2ead90	-0.17058396
10	0x3f0130a5	0.5046485
11	0xbe5534bb	-0.20820896
12	0x3e1ae81e	0.15127608
13	0x3e4a7eb4	0.19774896
14	0xbd8036b5	-0.062604345
15	0xbf3be8e0	-0.73402214
16	0xbdd6c717	-0.10487192
17	0x3dc63719	0.09678478
18	0xbf1141fc	-0.5674131
19	0x3e8d234e	0.27565998
20	0xbe71b230	-0.2360313
21	0xbef4b48d	-0.47794
22	0xc01267b9	-2.2875807
23	0xbfb58962	-1.4182551
24	0x3e91bcc4	0.2846433
25	0x3eaabca1	0.33347037
26	0x400e54ee	2.2239337
27	0x3f99a390	1.200304
28	0xbecc7c4d	-0.39938584
29	0xbf3172ab	-0.69315594
30	0xc00ef78f	-2.2338598
31	0xbf8888bd	-1.0666729
32	0x3ecc367a	0.39885312
33	0x3f2108cd	0.62904054
34	0x3fcf4ecf	1.6195925
35	0x3fa96a3b	1.3235544
36	0x3eca4d77	0.39512226
37	0x3e998f27	0.2999203
38	0xbf5776fb	-0.84165925
39	0xbf07cb68	-0.5304475
40	0x3e1cede7	0.15325128
41	0xbdbbc32b	-0.09168085
42	0x3e87b391	0.26504186
43	0xbe5ba271	-0.21448685
44	0xbef9a3ce	-0.48757786
45	0xbf19fe1e	-0.6015338
46	0xc01e528a	-2.4737878
47	0xbfa54224	-1.291081
48	0x3f483b3c	0.78215384
49	0x3e029fcd	0.12756272
50	0x3fdc9e20	1.7235756
51	0x3fba63cc	1.4561706
52	0x3e4d27a2	0.2003465
53	0x3ea5fd15	0.3241965
54	0x40016643	2.0218666
55	0x3fac4abf	1.3460311
56	0x3b9cc7ca	0.004784559
57	0xbd86273f	-0.06550454
58	0x3efa2327	0.48854944
59	0x3e71935f	0.23591374
60	0x3d611b9d	0.054957975
61	0x3e6be887	0.23037921
62	0xbf00f0b4	-0.50367284
63	0x3e02d11e	0.12775084

fc1.bias f4 [16]
0	0x3c374900	0.011186838
1	0x39526d4c	0.00020067877
2	0xbf085d61	-0.53267485
3	0xbf2df8b5	-0.6795762
4	0xbf099ccf	-0.53754896
5	0x3ea146e2	0.31499392
6	0x3eed0e44	0.46299946
7	0x3e8f5e1e	0.28001493
8	0x3ed2ade8	0.41148305
9	0xbf163cc4	-0.5868647
10	0xbec99f03	-0.3937913
11	0x3ebced03	0.36899576
12	0x3f42889f	0.7598972
13	0x3f1ca055	0.6118215
14	0xbebeab8d	-0.37240258
15	0xbf18af2a	-0.5964228

fc2.weight f4 [2, 16]
0	0x3e847094	0.2586714
1	0x3dbc397c	0.09190652
2	0x3d1ebeab	0.038756054
3	0x3eb06e68	0.34459233
4	0x3e61723a	0.2201623
5	0x3f8391e2	1.0278895
6	0xbea10fff	-0.31457517
7	0x3f7cc0ea	0.98731863
8	0xbf85b959	-1.0447189
9	0x3e811dcb	0.25218043
10	0xbe3bbd62	-0.18333963
11	0x3f8ab615	1.0836817
12	0xbf69ba7c	-0.9130018
13	0xbf09c246	-0.5381206
14	0x3e27a221	0.16370441
15	0xbe1e0012	-0.15429714
16	0xbef4a2b4	-0.47780383
17	0xbe8622c0	-0.26198387
18	0xbe19eabb	-0.15030949
19	0xbe9087f0	-0.28228712
20	0xbd19b880	-0.03752947
21	0xbf5f32d4	-0.8718693
22	0x3f2174ab	0.63068646
23	0xbf848ca2	-1.0355418
24	0x3f6aa0ae	0.9165143
25	0x3cabac95	0.020956317
26	0xbdf2b5e8	-0.11851102
27	0xbfab87e1	-1.3400842
28	0x3f219ff3	0.6313469
29	0x3f003fcc	0.50097346
30	0x3d44cceb	0.048046988
31	0xbe382fda	-0.17987004

fc2.bias f4 [2]
0	0xbc84dc00	-0.016218185
1	0x3e8357be	0.2565288

exp_avg f4 [16, 4]
0	0x3f250d98	0.6447387
1	0x3f3e95f4	0.7444756
2	0xbc1af31a	-0.009457374
3	0xbdeb2d99	-0.114833064
4	0x3e961585	0.29313293
5	0x3edd0cfc	0.4317397
6	0xbc46106d	-0.012088877
7	0xbd92ee53	-0.07174363
8	0x8000012a	-4.18e-43
9	0x800000cb	-2.84e-43
10	0x80000012	-2.5e-44
11	0x800000ab	-2.4e-43
12	0x39510eb9	0.00019937278
13	0xb98ac79b	-0.0002647013
14	0xb735b12b	-1.0829691e-05
15	0x3986853d	0.00025657742
16	0x804dc911	-7.143462e-39
17	0x0010afec	1.532477e-39
18	0x00036de7	3.14932e-40
19	0x80329ff6	-4.649158e-39
20	0x3fd42130	1.6572628
21	0x401b0588	2.4222126
22	0xbde8f75c	-0.11375305
23	0xbef1b3fd	-0.47207633
24	0xbf50d861	-0.8158017
25	0xbf9affda	-1.210933
26	0x3d706b33	0.058695983
27	0x3e974f6b	0.2955278
28	0x3fe3084b	1.7736906
29	0x401ec999	2.4810545
30	0xbdf0b447	-0.11753135
31	0xbef69e1f	-0.48167512
32	0xbfb6a555	-1.4269205
33	0xc01a8471	-2.4143336
34	0x3de27ae2	0.11058594
35	0x3f422531	0.75838
36	0x39c4fb56	0.00037571293
37	0x3a90e2db	0.0011053936
38	0xb9135e5b	-0.00014054163
39	0xba35445b	-0.0006914788
40	0x056b568a	1.10655416e-35
41	0x022fb0ae	1.2907674e-37
42	0x02bf4faf	2.8110664e-37
43	0x042e2540	2.0470706e-36
44	0x40084bb8	2.1296215
45	0x404185cf	3.023792
46	0xbe0fe873	-0.14053516
47	0xbf14ca5e	-0.5812129
48	0xbfaf2c6a	-1.3685429
49	0xbff073ba	-1.8785317
50	0x3daa96bb	0.08329531
51	0x3eb38a24	0.3506633
52	0xbf6d1902	-0.92616284
53	0xbfa429b8	-1.2825232
54	0x3d7c534d	0.06160288
55	0x3e7f11bf	0.24909113
56	0x1b471e73	1.6470733e-22
57	0x9c06e217	-4.4629095e-22
58	0x1aa97feb	7.0103424e-23
59	0x1c18c376	5.054521e-22
60	0x00c2eecf	1.7901755e-38
61	0x00c34afb	1.793482e-38
62	0x001ca4d6	2.630526e-39
63	0x00422aff	6.076567e-39

exp_avg_sq f4 [16, 4]
0	0x407d0edb	3.9540317
1	0x3fded2e8	1.7408113
2	0x3d2718aa	0.040795006
3	0x3f42dec8	0.7612119
4	0x3f9be9b9	1.2180701
5	0x3efc7ebd	0.49315444
6	0x3c448680	0.011994958
7	0x3e2d4563	0.16921
8	0x3b1b96df	0.002374105
9	0x3a900d54	0.00109903
10	0x373501c5	1.0788853e-05
11	0x3a387d7c	0.00070377416
12	0x3f180fcd	0.5939911
13	0x3eb18952	0.3467508
14	0x3b7ea3f9	0.003885506
15	0x3e0720b3	0.13196068
16	0x367985af	3.7181705e-06
17	0x3437bd22	1.7112009e-07
18	0x31f84f6f	7.2267805e-09
19	0x35d36238	1.574931e-06
20	0x427a5c70	62.59027
21	0x41bc5ee5	23.546335
22	0x3f0f6154	0.56007886
23	0x4105b183	8.355838
24	0x4132bd6d	11.171247
25	0x408ab80c	4.3349667
26	0x3dd0df8f	0.101988904
27	0x3fbf96ae	1.4967859
28	0x42a12fa6	80.59306
29	0x41c56a8c	24.677025
30	0x3f1d1bf2	0.61370766
31	0x41258650	10.345291
32	0x4274c32f	61.19061
33	0x41aa3e84	21.280525
34	0x3f01d448	0.5071454
35	0x40fb7a18	7.858654
36	0x3e8caf74	0.2747761
37	0x3e0f89cb	0.14017408
38	0x3b0f7d2d	0.002189468
39	0x3d4247f8	0.047431916
40	0x3c83fd0c	0.016111873
41	0x3aa44ad2	0.0012534505
42	0x37d0b1d8	2.4878347e-05
43	0x3a76f39d	0.00094204565
44	0x42e5338e	114.60069
45	0x4218148d	38.02007
46	0x3f67d7d8	0.90563726
47	0x4170f2c3	15.059268
48	0x41cb6dcf	25.428617
49	0x41419c2f	12.100631
50	0x3e999ae5	0.30000988
51	0x4082d09a	4.087964
52	0x418719ce	16.8876
53	0x40bd0925	5.9073663
54	0x3e0cf66d	0.13765879
55	0x400b6f1c	2.1786566
56	0x3de7a61c	0.1131098
57	0x3ce3f21d	0.02782541
58	0x39c0c4e3	0.00036767786
59	0x3c9ddd97	0.019270701
60	0x3ac5d319	0.0015092819
61	0x3ac0f384	0.0014721011
62	0x37aa9732	2.0335985e-05
63	0x39f91390	0.00047507556

exp_avg f4 [16]
0	0xc01f824c	-2.4923277
1	0xbf42861d	-0.7598589
2	0x000000d5	2.98e-43
3	0xb9a940a7	-0.00032282362
4	0x00233432	3.232967e-39
5	0xc0adb0bf	-5.4278255
6	0x40290afe	2.641296
7	0xc0bae3b5	-5.8402963
8	0x4093648a	4.606023
9	0x3acdf183	0.0015712235
10	0x04eb07af	5.525529e-36
11	0xc0dda4cd	-6.9263673
12	0x4091cbf0	4.5561447
13	0x40453b56	3.0817466
14	0x1c0f8884	4.7491173e-22
15	0x00c1f915	1.7813605e-38

exp_avg_sq f4 [16]
0	0x419ac7e6	19.347607
1	0x40987b09	4.765019
2	0x3aafbd5c	0.0013407874
3	0x3f57a1c4	0.8423121
4	0x354c6f47	7.615785e-07
5	0x436446d8	228.27673
6	0x4217bdc0	37.935303
7	0x4378b9c0	248.72559
8	0x434299ce	194.6008
9	0x3e9ae446	0.30252284
10	0x3bc9e6b0	0.0061615333
11	0x43b741b1	366.5132
12	0x42e42a94	114.08316
13	0x424f3a08	51.80667
14	0x3dca5bb7	0.098807745
15	0x3aadeeb9	0.0013269997

exp_avg f4 [2, 16]
0	0xbf8bf661	-1.0934564
1	0xbe0933fe	-0.1339874
2	0x00000057	1.22e-43
3	0x37897fdf	1.6391217e-05
4	0x8023e6a4	-3.29698e-39
5	0xbf94dc99	-1.1629821
6	0xbf955607	-1.1666878
7	0xbfc8c6d3	-1.5685676
8	0xbf0cdf2c	-0.55028033
9	0x3957b0f9	0.00020569925
10	0x05231b95	7.669289e-36
11	0xbfdc34e7	-1.7203645
12	0xbfedf1bf	-1.85894
13	0xbfd95efe	-1.6982114
14	0x1a8b5788	5.763047e-23
15	0x0088a694	1.2549384e-38
16	0x3f8bf661	1.0934564
17	0x3e0933fe	0.1339874
18	0x80000057	-1.22e-43
19	0xb7897fdf	-1.6391217e-05
20	0x0023e6a4	3.29698e-39
21	0x3f94dc99	1.1629821
22	0x3f955607	1.1666878
23	0x3fc8c6d3	1.5685676
24	0x3f0cdf2c	0.55028033
25	0xb957b0f9	-0.00020569925
26	0x85231b95	-7.669289e-36
27	0x3fdc34e7	1.7203645
28	0x3fedf1bf	1.85894
29	0x3fd95efe	1.6982114
30	0x9a8b5788	-5.763047e-23
31	0x8088a694	-1.2549384e-38

exp_avg_sq f4 [2, 16]
0	0x40d6a4b5	6.707606
1	0x3fbb225c	1.4619861
2	0x3960e728	0.00021448417
3	0x3ebf4916	0.37360448
4	0x35549c6a	7.9203767e-07
5	0x413c16ce	11.755568
6	0x41800875	16.00413
7	0x411947c8	9.580025
8	0x412d3b06	10.82691
9	0x3f15adda	0.584684
10	0x3c040758	0.0080583915
11	0x4179b4b3	15.606616
12	0x422260d0	40.594543
13	0x41e07ddc	28.061455
14	0x3ce8de45	0.028426299
15	0x3bfbb1bb	0.007681099
16	0x40d6a4b5	6.707606
17	0x3fbb225c	1.4619861
18	0x3960e728	0.00021448417
19	0x3ebf4916	0.37360448
20	0x35549c6a	7.9203767e-07
21	0x413c16ce	11.755568
22	0x41800875	16.00413
23	0x411947c8	9.580025
24	0x412d3b06	10.82691
25	0x3f15adda	0.584684
26	0x3c040758	0.0080583915
27	0x4179b4b3	15.606616
28	0x422260d0	40.594543
29	0x41e07ddc	28.061455
30	0x3ce8de45	0.028426299
31	0x3bfbb1bb	0.007681099

exp_avg f4 [2]
0	0xc0388c6b	-2.8835704
1	0x40388c6b	2.8835704

exp_avg_sq f4 [2]
0	0x4292840f	73.25793
1	0x4292840f	73.25793
